…
Y shape: (5918, 6)
WARNING:tensorflow:From /home/andrew/.local/lib/python2.7/site-packages/tensorflow/python/ops/init_ops.py:1251: calling __init__ (from tensorflow.python.ops.init_ops) with dtype is deprecated and will be removed in a future version.
Instructions for updating:
Call initializer instance with the dtype argument instead of passing it to the constructor
Model: "sequential"
_________________________________________________________________
Layer (type)                 Output Shape              Param #   
=================================================================
conv2d (Conv2D)              (None, 716, 316, 24)      624       
_________________________________________________________________
max_pooling2d (MaxPooling2D) (None, 358, 158, 24)      0         
_________________________________________________________________
conv2d_1 (Conv2D)            (None, 354, 154, 24)      14424     
_________________________________________________________________
max_pooling2d_1 (MaxPooling2 (None, 177, 77, 24)       0         
_________________________________________________________________
conv2d_2 (Conv2D)            (None, 173, 73, 24)       14424     
_________________________________________________________________
max_pooling2d_2 (MaxPooling2 (None, 86, 36, 24)        0         
_________________________________________________________________
flatten (Flatten)            (None, 74304)             0         
_________________________________________________________________
dropout (Dropout)            (None, 74304)             0         
_________________________________________________________________
dense (Dense)                (None, 72)                5349960   
_________________________________________________________________
dense_1 (Dense)              (None, 6)                 438       
=================================================================
Total params: 5,379,870
Trainable params: 5,379,870
Non-trainable params: 0
_________________________________________________________________
Train on 4734 samples, validate on 1184 samples
Epoch 1/5
 100/4734 [..............................] - ETA: 31:00 - loss: 1.7719 - acc: 0.2200
…
