…
5902/5902 [==============================] - 124s 21ms/sample - loss: 0.0500 - acc: 0.9803 - val_loss: 0.1821 - val_acc: 0.9688
4162
3
(180, 320)
(4162, 180, 320, 1)
Total examples: 4162
Training examples: 3330.0
Test examples: 832.0
X shape: (4162, 180, 320, 1)
Y shape: (4162, 6)
Model: "sequential_1"
_________________________________________________________________
Layer (type)                 Output Shape              Param #   
=================================================================
conv2d_3 (Conv2D)            (None, 176, 316, 12)      312       
_________________________________________________________________
max_pooling2d_3 (MaxPooling2 (None, 88, 158, 12)       0         
_________________________________________________________________
conv2d_4 (Conv2D)            (None, 84, 154, 24)       7224      
_________________________________________________________________
max_pooling2d_4 (MaxPooling2 (None, 42, 77, 24)        0         
_________________________________________________________________
conv2d_5 (Conv2D)            (None, 38, 73, 36)        21636     
_________________________________________________________________
max_pooling2d_5 (MaxPooling2 (None, 19, 36, 36)        0         
_________________________________________________________________
flatten_1 (Flatten)          (None, 24624)             0         
_________________________________________________________________
dropout_1 (Dropout)          (None, 24624)             0         
_________________________________________________________________
dense_2 (Dense)              (None, 216)               5319000   
_________________________________________________________________
dense_3 (Dense)              (None, 6)                 1302      
=================================================================
Total params: 5,349,474
Trainable params: 5,349,474
Non-trainable params: 0
_________________________________________________________________
